examples/atmega_mnist/mnist.simplified.onnx (onnx, 15803 bytes, 4 tensors)

cnn1.weight f4 [20, 1, 5, 5]
000000 e7 2d 81 be 77 4a a9 be 13 98 ed 3d f9 47 99 3e
       -0.25230333 -0.33064625 0.116012715 0.29937723
000010 4b cd 21 3e a4 37 52 be 56 c4 08 be e9 e7 aa 3e
       0.1580097 -0.20529038 -0.13356146 0.33380058
000020 c0 44 03 3f 1d 5e 73 3e 5b e9 5d be cb 2c 57 3e
       0.5127678 0.2376637 -0.2167105 0.21013181
000030 66 b3 00 3f d3 48 b1 3e da 0e 80 be 29 7f 43 be
       0.5027374 0.34625873 -0.2501133 -0.19091477
000040 5d e4 76 3e 00 4b 51 3e b7 f9 a3 bd 3a 80 d7 be
       0.24110551 0.20438766 -0.08006614 -0.42090017
000050 01 ee 13 bb 78 89 2b 3e 8f 57 9b bd f5 e4 e2 be
       -0.0022572281 0.16751659 -0.0758506 -0.44315305
000060 88 45 e2 be df 91 0f 3e c9 19 a2 3d 02 df 37 be
       -0.44193673 0.14020489 0.079150744 -0.17956164
000070 7b 35 68 bd fa 59 ad bd 2e dd e8 3d 9b 73 0d bd
       -0.056691628 -0.08464427 0.11370312 -0.034534078
000080 08 6e 2a be 85 f0 44 be 60 e8 13 be 94 ee b3 bd
       -0.16643536 -0.19232376 -0.14444113 -0.087857395
000090 5e dd 81 bd 09 06 91 bc 29 3b 0a 3e 73 99 6b bd
       -0.063410506 -0.017703073 0.1349913 -0.057519387
0000a0 19 ea 75 3e 31 52 b2 3d 5d 6b 0e 3e d8 44 71 3e
       0.24015082 0.08707083 0.13908143 0.23561418
0000b0 a6 fd a9 3d cf 4a 7b 3e c0 20 5a 3e a9 7b 82 3d
       0.08300333 0.24540256 0.21301556 0.063712426
0000c0 8b 8a 97 3e 7d a0 a8 3e 8c c7 4f 3e be e8 94 3e
       0.29597887 0.32934943 0.20290965 0.29083818
0000d0 6b 04 8d 3d 17 22 de be f5 09 47 bf 3a ba 2e 3e
       0.06885608 -0.43385383 -0.7774957 0.17063227
0000e0 ce 7d 00 3f b0 57 06 3e 26 ce f3 be 32 a0 96 bf
       0.5019196 0.13119388 -0.47618216 -1.1767638
0000f0 c4 5e a8 3e 4d 69 e9 3e 6b d9 ba 3d 7f bc 28 bf
       0.328848 0.4558815 0.091235004 -0.6591262
000100 bd 2c 57 bf 5a f0 5f 3e c6 60 68 3e a5 fd 81 bd
       -0.8405264 0.2186903 0.22693166 -0.06347207
000110 49 17 df be b1 8f 03 bf 84 93 5b 3d 76 e6 04 3e
       -0.43572453 -0.5139113 0.05360748 0.12978539
000120 1e 3f 2b be a8 d9 0f be 71 69 9c bd 78 a6 49 bc
       -0.16723296 -0.14047873 -0.07637299 -0.012307756
000130 9f 76 23 3e 61 e0 36 be c1 ff 96 3c 7c 03 2b be
       0.15963219 -0.17859031 0.0184325 -0.16700548
000140 ec 92 14 3e 8e 87 96 3e 51 b1 ef 3c 43 c4 3e 3e
       0.14509171 0.29400295 0.029259356 0.18629555
000150 94 8b 67 bd d3 32 df bb 25 a4 38 3e 55 cd 49 bd
       -0.056529596 -0.0068114786 0.18031366 -0.049268086
000160 e9 08 5a bd e3 c7 25 3e d2 0e cb bd 71 cb dd 3d
       -0.053231154 0.16189532 -0.09914936 0.10829819
000170 b7 bc 3b 3d c2 b1 fd 3d 9b 16 65 3e c1 f4 67 bc
       0.04583427 0.1238742 0.22371905 -0.014157475
000180 c4 92 cf 3d bb d8 23 3e ce 86 7f 3e 72 a5 ba 3d
       0.10135415 0.16000645 0.24953768 0.091135874
000190 d7 6f be 3e 1d e0 9c 3e 6d 9a ad 3e 2c cb 6d 3e
       0.37194702 0.30639735 0.3390688 0.23222035
0001a0 92 23 2a 3e c7 63 4d 3e d3 03 90 bc 88 89 06 be
       0.16615131 0.20057593 -0.017579949 -0.13138402
0001b0 eb 10 ec 3d 5b 85 2c 3e 36 60 15 3e 1b 04 b0 3d
       0.11526664 0.16847746 0.14587483 0.08594533
0001c0 a4 ab d1 bd cb c6 cb bd 9d e2 59 be 28 d9 2a 3d
       -0.10237816 -0.09950026 -0.21277852 0.041711003
0001d0 2d 42 7e 3e 8b f6 94 3e db 3e 2e 3e 7a d2 04 3e
       0.24829932 0.29094347 0.17016165 0.12970915
0001e0 b3 da 95 be 3f d7 7d be 91 02 26 3d 12 d6 19 3e
       -0.29268417 -0.24789141 0.04052979 0.15023068
0001f0 a1 fb cd 3a 4b f0 e8 3d 9c ea 0a be 68 c9 6b be
       0.001571525 0.11373957 -0.13566059 -0.23026049
000200 54 66 9e be e9 71 d1 bd d6 a3 93 be e8 4d a7 be
       -0.30937445 -0.10226805 -0.28835934 -0.32676625
000210 df 40 9f be 1e 8c 45 be 55 3b 90 3e e8 c6 11 be
       -0.3110418 -0.19291732 0.28170267 -0.14236033
000220 3c bc 4f be 69 91 1d bb 52 44 7d 3e 8d c9 f2 3e
       -0.2028665 -0.002404297 0.24733093 0.47419396
000230 e2 cc 11 3b 22 1b 7d 3d 3a f1 ad 3e 50 54 bd 3e
       0.0022247364 0.061793454 0.33973104 0.36978388
000240 c7 1b 7d 3e f7 9f 8a 3e 8d 9d 7f 3e 3d 9a d8 3e
       0.24717627 0.27075168 0.24962445 0.42305174
000250 e9 87 80 3d 17 b3 0a bd 90 fc d8 3c 5e c7 91 be
       0.06275923 -0.0338622 0.026487619 -0.28472418
000260 a2 67 9c be 63 dd ab be 7f b5 05 bf 62 8b 81 3e
       -0.30547816 -0.33567342 -0.52230066 0.25301653
000270 43 c3 59 3e 5a 01 b8 bc dd 01 84 bd 8e 9c 35 bf
       0.21265893 -0.022461582 -0.06445668 -0.7094201
000280 24 94 86 3e 8c 88 71 3e 46 88 b5 3d 06 42 72 3e
       0.26284897 0.23587245 0.08863883 0.23657998
000290 16 9a 99 bd e8 cf 41 3e 49 24 b4 3e 93 e4 8b 3e
       -0.07500093 0.18926966 0.35183933 0.27322826
0002a0 da 3a c8 3e ab ca de bb 35 9b bb 3d 0c 4e 72 3d
       0.391074 -0.0067990622 0.09160463 0.059156463
0002b0 6d 9a b0 3d 0d 7f 4f 3e d9 a8 c4 3d a1 0b a3 3e
       0.086232044 0.2026331 0.09602518 0.3184481
0002c0 ea 4f c1 3b 0e 8a 1c be 9a 09 d0 bd 98 07 31 3e
       0.005899419 -0.15287039 -0.10158081 0.17288053
0002d0 65 88 c7 3e b6 9f 18 be 4a e8 d8 be f1 4f 70 bd
       0.38971248 -0.14904675 -0.42364722 -0.058669988
0002e0 3b 0a 9c 3e 62 b6 31 3e 16 30 0a bf c8 87 0d bf
       0.30476555 0.1735473 -0.53979623 -0.5528531
0002f0 59 40 9b 3e 65 96 e2 3e bf a4 ce bd 65 4a 01 bf
       0.3032253 0.44255367 -0.100900166 -0.5050414
000300 01 95 28 be 92 fa fb 3e 04 90 a4 3e b5 fa 85 bd
       -0.1646309 0.49214607 0.32141125 -0.06541959
000310 9f 58 27 be 7b 47 c8 3d 56 70 b8 3e ed 1d d1 3d
       -0.163424 0.09779259 0.36023206 0.10210786
000320 30 6f 2b be bf 17 1e 3e be 11 8c 3e 77 0e d3 3e
       -0.16741633 0.15438746 0.27357286 0.41221973
000330 78 5c 09 3d 3d 81 ac be 79 5d 0d be 5e ea b7 3e
       0.03353545 -0.3369235 -0.13805188 0.35920995
000340 61 b7 f3 3e bf f0 2c 3e f9 b4 8b be 8c 10 97 be
       0.47600845 0.16888712 -0.2728651 -0.29504812
000350 b8 f7 bb 3e 89 a9 c2 3e a4 04 83 3e a5 5c be be
       0.36712432 0.3801997 0.25589478 -0.37180057
000360 a4 e2 ab be 73 75 94 3e 14 85 a4 3e dc 5e fb 3d
       -0.3357135 0.28995857 0.3213278 0.12273952
000370 21 f1 2b bd 02 ed 5a be 8c 75 71 3e fd 65 a7 3c
       -0.041978005 -0.21379474 0.23579997 0.020434374
000380 7c 7a 76 bd c8 cc 5a be c3 22 4e 3e 26 1f 62 bd
       -0.060175404 -0.2136718 0.20130448 -0.055205487
000390 9c 00 e1 bd cc ea 03 be 11 51 07 3d 3b 8a 87 bc
       -0.10986444 -0.12882537 0.033036295 -0.016545406
0003a0 ad d5 27 bd 51 8f 30 bd 8b ed e8 bd 89 41 39 3e
       -0.04097526 -0.043105427 -0.11373433 0.18091406
0003b0 35 b9 47 3e a2 6b 11 3e d2 2e a9 3e 90 6d a8 3e
       0.19504245 0.14201215 0.33043534 0.3289609
0003c0 e1 3c e7 3d 74 8e 36 3e 46 a0 f7 3e 36 bd d6 3e
       0.112909086 0.17827779 0.48364466 0.4194123
0003d0 92 62 87 3e 18 71 09 be 21 86 b0 be e9 14 05 bf
       0.2644239 -0.13422048 -0.34477332 -0.5198503
0003e0 13 31 51 bf 12 2b 38 bf 37 43 b2 3e af 30 b9 3d
       -0.81715506 -0.7194072 0.34816906 0.09042489
0003f0 b3 df 18 3e 7c 18 31 bc 83 60 62 3e 88 f1 e1 3e
       0.14929084 -0.01080906 0.22107129 0.44129586

cnn2.weight f4 [12, 20, 3, 3]
000000 62 fb 29 be b8 fa f3 bd 09 74 97 3d d0 de f4 3d
       -0.16599801 -0.11913055 0.07395179 0.119565606
000010 1d 00 d5 3d 1b d8 94 3d 76 ad e2 3d 93 4d a1 3d
       0.10400412 0.07267781 0.11068241 0.07876124
000020 ba 39 2a 3d 5a 12 7e 3b b2 43 94 3d 88 0b 0c bc
       0.04155896 0.0038768263 0.07239474 -0.008547671
000030 a5 42 af 3c 04 4d e8 3c c8 07 42 3d 54 fc b6 3d
       0.021394083 0.028357036 0.047370702 0.089348465
000040 3f b0 8a 3d fb 20 bf 3d 1a ff 89 3e f6 f0 27 3e
       0.067718975 0.093324624 0.2695244 0.16400513
000050 82 9c f9 bd 53 f0 34 3e 32 cf 74 3e 86 49 a1 bc
       -0.121880546 0.17669801 0.23907164 -0.019688379
000060 3e c4 33 be ff a1 2d 3e 32 52 13 3c 85 45 e1 3c
       -0.17555329 0.16956328 0.008991765 0.02749897
000070 6f 73 aa bc 73 e6 20 3d 3d 09 b6 bd 58 30 81 bd
       -0.020806996 0.039282274 -0.08888481 -0.06308049
000080 d0 65 b3 bd 8c 38 32 bc 85 a8 95 3d 66 4b f3 3d
       -0.087596536 -0.01087774 0.07307533 0.118796155
000090 a1 1f 0a 3e a1 c8 dc 3d be aa 10 3d 57 cc d5 3d
       0.13488628 0.107804544 0.035319082 0.10439365
0000a0 e4 5d ba 3c 00 6b c8 3c 06 d6 91 3d 9f f9 45 bd
       0.022749849 0.024465084 0.071209 -0.04833376
0000b0 fd 45 57 3c e5 c8 1c 3d aa 9d e3 3d 42 0d 83 3d
       0.013139245 0.038277525 0.111140564 0.06399013
0000c0 f2 80 ed 3d f7 be fa 3d e6 fd 6c bd 3f 0a 2e 3e
       0.1159686 0.12243455 -0.057859324 0.16996096
0000d0 06 1a 63 3e e7 63 50 3d c6 ea 3d 3e 27 91 e1 3d
       0.22177896 0.050876524 0.1854659 0.11014014
0000e0 13 bf 34 bd 17 29 af 3d 97 24 86 3d e2 15 75 bd
       -0.044127535 0.08552759 0.06549948 -0.059835322
0000f0 2a b9 70 bd e5 54 c9 bd ef 3f b0 3d 7d 16 8d be
       -0.058770336 -0.098306455 0.08605944 -0.2755622
000100 fe 6a 1f be bd 74 2c b9 19 17 02 be a5 73 37 3b
       -0.15568158 -0.00016446687 -0.12704124 0.0027992513
000110 2a fb d2 bd 6f fd c3 bd 1d 03 3a 3d 30 d9 82 bc
       -0.10301812 -0.09569823 0.045413125 -0.015972704
000120 14 75 e0 bd db e2 38 bd f6 68 00 3e d4 10 39 bd
       -0.10959831 -0.04513822 0.1254004 -0.045182064
000130 69 45 34 be 0f d4 8c bd 27 43 1c be 82 9c 0f be
       -0.17604603 -0.068763845 -0.15259992 -0.14024547
000140 d7 60 e8 bd 20 b0 08 3f 76 df 7e 3e e4 1c 1e 3e
       -0.11346596 0.53393745 0.24889931 0.15440708
000150 3d 13 14 3e a9 c6 8f 3c 02 62 3b bd 75 0c 0a 3e
       0.14460464 0.017550783 -0.045747764 0.13481314
000160 d4 ee f3 3c 9a 20 7e bd a1 e5 87 3e c5 c1 8e 3e
       0.029776968 -0.06204281 0.2654238 0.2788221
000170 1e 3d 12 3f 24 5f bb 3d 23 95 63 bd 49 bb b0 3d
       0.5712451 0.09149006 -0.05556215 0.08629472
000180 69 e8 f7 3c df 6f df 3c 1a 49 c2 bd 87 79 63 3e
       0.030262189 0.027275024 -0.09486599 0.22214328
000190 53 7d 48 3d 33 11 d5 bd bf 74 40 3e 7f fa ba 3c
       0.048947643 -0.10403671 0.18794535 0.022824524
0001a0 11 8a 5c 3d 59 87 07 3e 72 72 b4 3d c6 6d 23 bd
       0.053842608 0.13235225 0.08810891 -0.03989961
0001b0 30 96 80 be 0c 6c 61 be 3d ba 52 be ac 9b 9c bd
       -0.25114584 -0.22013873 -0.20578857 -0.076468796
0001c0 b0 85 22 be 45 3a 8c be 3b 75 23 3c c1 e8 f2 bd
       -0.1587131 -0.27388206 0.00997668 -0.118608005
0001d0 ca a9 dd bd db ed cd bd 06 00 fb bd 50 c0 2d bd
       -0.108234 -0.10055133 -0.12255864 -0.04241973
0001e0 db bf da 3d 50 72 a7 3d 2a b1 d4 bb e2 43 20 3e
       0.10681125 0.081761 -0.006490846 0.15650895
0001f0 2c 18 34 3d 19 03 7f 3d 13 f3 0c 3e 9a 9d 83 bd
       0.043968365 0.062258814 0.137646 -0.064265445
000200 88 31 ce bd c3 e3 b0 be 31 f3 8f be 16 98 3a be
       -0.10068041 -0.34548768 -0.28115228 -0.18222079
000210 de 75 10 be 63 85 d7 bd 3c 29 0b be 1d 19 2b 3c
       -0.14107463 -0.105234884 -0.13589948 0.010442999
000220 74 42 6b bc 9c b2 d5 3d 03 f4 61 bd 11 bc 48 bd
       -0.014359105 0.10434458 -0.05516435 -0.04900748
000230 be 7a 31 bd 71 cc 40 3d fc 3f 2f bc 53 ad 84 bd
       -0.043329947 0.04706997 -0.010696407 -0.064783715
000240 54 d0 d8 bc a0 ab 1a 3c c4 75 cc 3c 58 4f cf bd
       -0.026466526 0.009440333 0.024958499 -0.101225555
000250 86 f7 5f bc bb 04 b7 bc 0e e6 4c bd eb 41 07 ba
       -0.013669854 -0.022341123 -0.050024085 -0.0005159664
000260 f6 6c 20 bd 2e 1e c4 3e 38 c6 c5 3e 18 99 eb 3e
       -0.039166413 0.38304275 0.3862779 0.4601524
000270 83 18 2f 3e 5c eb 17 bc fb b7 fa ba d5 e8 d0 3d
       0.17099194 -0.009272423 -0.0019128317 0.10200659
000280 9c c8 c9 bd 40 04 0a be 84 57 c1 3d fd 38 80 3c
       -0.09852716 -0.13478184 0.094405204 0.015652174
000290 40 ba 7c bd de 95 e9 3c 54 b2 91 3c 7f 0f 98 3a
       -0.06170106 0.028513845 0.017785229 0.0011601298
0002a0 e9 33 e9 3d e1 21 11 3e 23 08 08 3e 87 09 e0 3e
       0.11386854 0.1417308 0.13284354 0.4375727
0002b0 31 ca 0d 3e f3 45 41 3e ca e5 b1 3e 81 99 ee 3d
       0.13846661 0.1887434 0.34745628 0.11650372
0002c0 d3 a7 1e 3e 72 c6 91 3e 1d 29 12 3e 12 19 d8 3d
       0.15493707 0.28471714 0.14273496 0.10551657
0002d0 14 08 37 3e 4a 10 04 bc 2d 07 60 bd 34 54 a6 3d
       0.17874175 -0.008060524 -0.054694343 0.08121529
0002e0 58 99 c7 3d ce 80 01 3e 2b f4 0e 3e bc 81 f4 3d
       0.09746045 0.12646791 0.1396033 0.11938807
0002f0 1b 5a 59 3e c4 ae d0 bc b0 52 b9 3d 32 a0 81 3c
       0.21225779 -0.02547396 0.090489745 0.015823457
000300 2b 8a dd bd ec 13 a5 bb 8d 37 1e 39 83 fb 20 3e
       -0.10817369 -0.0050377753 0.00015088748 0.15720944
000310 a2 08 2f 3a 13 69 fc bd 95 68 34 3f 91 23 c8 3e
       0.00066770066 -0.12324729 0.7047208 0.39089635
000320 c3 b4 7a 3e 03 87 45 3e 9b 9d fd bd 8b 1a 02 3e
       0.24483018 0.19289784 -0.123835765 0.12705438
000330 43 8a e4 3e f4 07 8c 3d 18 76 ae 3e 62 d2 1f bc
       0.44636735 0.068374544 0.34074473 -0.009754749
000340 9f e9 eb bc 6a 30 82 bd c5 71 67 bd 63 da dd bb
       -0.028797923 -0.063568905 -0.056504983 -0.0067704185
000350 5c 82 92 bd 4b 5d 2f 3c c8 11 be bc 0a fc 98 bd
       -0.0715377 0.010703395 -0.023201838 -0.07469948
000360 cb 62 cf 3d b9 b9 f3 3d 50 c5 72 3d 3d 22 e8 bc
       0.10126265 0.11900658 0.059270203 -0.028336639
000370 d3 f1 e2 bd 24 0f a4 bd 7b 5e 4c 3d 93 80 dc bd
       -0.110812806 -0.080107 0.04989479 -0.10766711
000380 8a d8 2f be 2c d3 d7 bd 6d 0e c4 3d ee 7b bb 3b
       -0.17172447 -0.10538325 0.09573064 0.0057215607
000390 d4 6c a5 bd b6 5f df bd 3b 65 eb b9 10 48 24 be
       -0.08077398 -0.10906927 -0.00044898115 -0.16043115
0003a0 c7 7f c3 3c 10 5e d6 3d f3 51 27 3d 1d 6b 4b bb
       0.02386464 0.1046716 0.040849637 -0.0031039186
0003b0 9c 10 12 3c 5a 6e 42 bd 6b b0 d7 bd a5 2a f3 3c
       0.008915093 -0.04746852 -0.10531696 0.02968342
0003c0 bf 7b f9 3d 2b 13 df bd 46 ff bc be e6 0c 86 3e
       0.12181806 -0.10892328 -0.36913508 0.26181716
0003d0 02 3d 90 3e 96 b2 be 3e 6c 3e ef 3d 3e 72 b6 bb
       0.28171545 0.37245625 0.11681828 -0.005567818
0003e0 a3 11 d9 3e 5c e2 e7 3d ac 65 07 3b 54 1b 25 3f
       0.42396268 0.113224715 0.0020659966 0.64494824
0003f0 81 df 4c 3e e4 96 ff 3e 0f 97 04 3f 86 1d 93 3d
       0.20007135 0.49919808 0.51793 0.071833655

linear.bias f4 [10]
000000 36 b6 b3 be 20 f8 dc 3d 86 b9 ce 3d 75 40 40 3c
       -0.35099953 0.107895136 0.100939795 0.011734118
000010 6a 9f e3 bd cc 46 d6 3e 3e e0 1b be 10 93 0e 3c
       -0.1111439 0.4185089 -0.1522226 0.008702055
000020 91 33 d5 bd 1e e2 9a 3d
       -0.10410226 0.0756266

linear.weight f4 [10, 108]
000000 6e fb df bd 7d f8 b6 bd 95 f3 2b be c4 6c 45 be
       -0.10936628 -0.08934114 -0.16792138 -0.19279772
000010 a3 94 d8 3c 60 f6 7a bd 25 7d 1c be e1 19 b8 3d
       0.026438063 -0.061270118 -0.15282114 0.08989311
000020 43 af 9e 3c d9 73 9e bd 78 60 b0 3d 1f 41 9d 3d
       0.01937068 -0.0773694 0.0861215 0.076784365
000030 26 68 43 3e eb 6a 7a 3e cb c2 a0 3e 30 d4 68 3c
       0.19082698 0.24454848 0.31398615 0.014210746
000040 d4 dd 02 3e bb ee 3b 3e 94 88 93 3c 10 b3 17 be
       0.12779933 0.18352787 0.018009461 -0.148144
000050 21 25 3c 3e 2e c4 75 be 81 d6 83 bd d6 58 6e 3d
       0.18373539 -0.24000618 -0.06437398 0.05819019
000060 82 67 8d be dd e8 55 3d 00 2c 4d 3e 48 ee 04 3e
       -0.27618033 0.05222403 0.20036316 0.12981522
000070 47 a4 6d 3d 57 57 35 3e 60 17 8c 3e 9b 65 4f 3e
       0.058017995 0.17709099 0.27361584 0.20253603
000080 98 85 84 3e 99 1c 42 3e a9 a8 3d be a2 d6 87 be
       0.25883174 0.18956222 -0.1852137 -0.2653094
000090 3b e4 48 3e 4d 6d da 3d dc 78 93 bd f4 eb c1 3d
       0.19618313 0.10665379 -0.072007865 0.094688326
0000a0 bf e4 81 bd d3 da ec 3d ae 4b 8a 3c f0 d2 50 3e
       -0.06342458 0.11565175 0.01688179 0.20392966
0000b0 98 f5 54 3e ae 47 b0 3c af e8 6c 3d 91 bd 1c 3e
       0.20796812 0.021518555 0.057839092 0.15306689
0000c0 fe 6d ba b8 14 47 cd bd 17 e2 b7 3d 82 b7 39 3e
       -8.889659e-05 -0.10023323 0.0897867 0.18136409
0000d0 00 f1 d7 bc 3f fb 9a be f7 c6 53 3e e8 87 5c bd
       -0.026360035 -0.3026981 0.20681368 -0.053840548
0000e0 3b df 7e 3d d0 b2 17 3e b1 96 fd 3d d7 ff 6d 3d
       0.062224608 0.14814305 0.12382258 0.058105316
0000f0 80 bb 9a 3d a2 d6 8c bc aa 25 0a be 8f 4b c2 bc
       0.07555294 -0.017192189 -0.1349093 -0.02371767
000100 1a 95 03 3e 36 13 50 3e 55 b0 62 bc ba 5a 47 3e
       0.12849846 0.20319828 -0.013835986 0.19468203
000110 6f cd 30 3d 00 bb 62 be b7 7f 6e be 60 6b 30 be
       0.043164667 -0.22141647 -0.23290907 -0.1722846
000120 61 a9 38 3d 94 82 2c bc 9e 2e 1c be 2a 5d 66 be
       0.045083407 -0.010529179 -0.15252158 -0.22496477
000130 79 d1 8f bd 5b e4 8d 3d 57 6d 6a be 68 b6 1b be
       -0.070223756 0.06928321 -0.22893272 -0.15206301
000140 44 d0 1b 3e ed 5e 5c 3e 19 c3 50 3d 82 41 f1 bd
       0.15216166 0.21520586 0.05096731 -0.11780073
000150 4b c5 ad 3d 26 4a 43 bd cb 92 5b be 5a 25 7d 3d
       0.08484896 -0.047678135 -0.21442716 0.0618032
000160 f5 e0 25 be d6 ad ed be eb 30 a9 3c aa 75 7b bd
       -0.16199096 -0.4642169 0.020653209 -0.06139151
000170 1c d5 46 3e d7 3a 39 be 07 24 ae bc 17 5f ca 3e
       0.19417232 -0.18088852 -0.021257414 0.39525673
000180 d6 43 8a be 0a 11 6c be 6e 45 b4 3d 9b 4a b6 3a
       -0.2700488 -0.23053375 0.08802305 0.0013907732
000190 a2 92 8d 3d 2e 06 6e be b8 a4 2c 3e bf 3a 2b bc
       0.069127336 -0.23244545 0.1685971 -0.010451018
0001a0 02 f2 8b be 67 08 a1 3e 52 ad 69 3e bc 63 94 bc
       -0.27333075 0.31451723 0.22820023 -0.018113963
0001b0 ee 31 92 be 87 7b 9c be cc 86 7a be 49 ef fd bb
       -0.28553718 -0.30562994 -0.24465483 -0.0077494723
0001c0 ea e2 fd bd 4b d8 b5 bd db fc d2 3a 01 12 7a be
       -0.12396796 -0.08879145 0.0016097085 -0.2442093
0001d0 d4 03 38 bd 72 f7 e5 bd b4 4f 86 3d 08 01 cc 3e
       -0.044925526 -0.11228837 0.06558171 0.39844537
0001e0 0c df 1a bc 48 f1 05 be 4e 8b 09 3e 00 19 48 3e
       -0.009452593 -0.13080323 0.13432047 0.19540787
0001f0 6d 11 e9 bd 08 ca 01 bd 2c b3 59 3e 64 78 83 be
       -0.11380277 -0.031686813 0.21259755 -0.25677788
000200 2b af aa be 6e 61 3b 3e 4e f6 e7 bd ae 4c 79 be
       -0.33336768 0.18298885 -0.11326276 -0.24345657
000210 16 ca 52 3d 33 b6 58 bd e6 bd 4b bd 04 b7 fe bd
       0.051462255 -0.052908134 -0.04974165 -0.12437251
000220 2b 88 d5 bc 75 4a 6b bc 80 fe 72 be 9d cb 71 bd
       -0.026065907 -0.014361014 -0.23729897 -0.05903207
000230 88 ef d5 bb f3 fc 81 be eb 0a 73 3d e8 71 ee 3c
       -0.0065287985 -0.25388297 0.059336584 0.02910705
000240 35 9e c3 3d 27 79 38 be b5 fe 87 be e9 b3 a9 3d
       0.0955166 -0.18014966 -0.26561514 0.08286268
000250 7f 0a 5a be c8 68 53 be 72 6d 96 3e df 6c 5e be
       -0.21293066 -0.2064544 0.29380375 -0.21721219
000260 f2 d1 82 bd c7 82 4c bd e0 29 18 be 7e 55 c1 be
       -0.063877 -0.049929406 -0.14859724 -0.37760538
000270 ee 83 32 be 06 77 c5 3c ec 0f 2c 3e e4 91 97 be
       -0.1743314 0.024104606 0.16802949 -0.29603493
000280 6a bd 69 3e 2c dd f2 3e 74 4b f4 bd a3 dd 94 3d
       0.22826162 0.47434366 -0.11928454 0.07268836
000290 5b b7 fa bd 58 13 f7 3c 06 ed 2d 3e 37 2c 20 bc
       -0.122420035 0.030160591 0.16984949 -0.009776167
0002a0 23 db 93 3e ce 9a 08 3d ec cc 06 3c 91 f2 64 3d
       0.28878126 0.03335076 0.008227568 0.05589539
0002b0 e5 64 b8 bd 84 8d 1f be 0b f9 42 3d bf 1e b8 3d
       -0.09003619 -0.15581328 0.047600787 0.08990239
0002c0 55 0d 7c 3d c3 05 79 3d 1d 39 33 3e a9 d4 1c 3e
       0.061536152 0.06079651 0.17502256 0.15315498
0002d0 b8 a9 29 3e 6a ee 67 3e f3 36 96 3d 90 e2 51 3e
       0.16568649 0.22649541 0.073346995 0.20496583
0002e0 fd 52 bf 3e 8e 92 14 bd f5 55 f2 3d 5f 55 36 3e
       0.37368003 -0.036272578 0.11832801 0.17806004
0002f0 c4 98 33 bd 09 3d 99 3e 3a 74 45 3e c2 9b 4b bd
       -0.04384686 0.2992938 0.19282618 -0.04970909
000300 2d 08 f5 3d 36 51 70 3e ff 25 e2 3d 7b 5f 13 bd
       0.1196445 0.2346848 0.110424034 -0.03597973
000310 71 d8 ff 3d 51 b0 02 be 97 01 76 3e 67 07 72 3e
       0.12492455 -0.12762572 0.24024044 0.23635636
000320 b7 cd 19 3e 82 15 69 3e a0 9a 91 3d e6 40 17 be
       0.1501988 0.22762111 0.071095705 -0.1477085
000330 b3 0c b4 3d 56 23 02 3d d2 c5 5b be 65 8c 31 bc
       0.08791485 0.03177198 -0.21462181 -0.010836695
000340 be 0d 09 3d 75 00 97 3e 05 cc ff bd 15 98 ff bd
       0.03346037 0.29492536 -0.124900855 -0.12480179
000350 0d be 0e 3e f0 87 a0 39 b9 61 79 3e 0b 1d b6 3d
       0.13939686 0.0003061886 0.24353684 0.08892258
000360 9b 1a 9d 3e ea bf 6a 3e a4 55 bd 3d f4 37 50 3e
       0.3068436 0.22924772 0.0924485 0.20333844
000370 0c 3f 32 3e d0 c4 d3 3d 4d 8d 47 3d da 4f 47 bd
       0.17406863 0.103402734 0.04871874 -0.048660137
000380 7e 27 b7 b8 a5 ba 10 39 26 ce b6 3c 50 9f 83 3e
       -8.733476e-05 0.0001380244 0.022315096 0.25707483
000390 07 c6 e1 3c 1c d9 aa bd 45 34 cf 3c 08 2b a6 3c
       0.027560247 -0.083421916 0.025293479 0.02028419
0003a0 33 68 24 bd 9a 59 1c bf 00 db 80 3e 1c 4f 5b 3d
       -0.040138435 -0.6107422 0.25167084 0.05354224
0003b0 c3 28 a1 be c2 59 c7 3d 12 32 0c be 26 a2 20 be
       -0.3147641 0.09733917 -0.13690975 -0.15686855
0003c0 1d 69 6f bd 48 65 7e 3d ee 43 a9 3e 9a 48 34 bd
       -0.058449853 0.062108308 0.3305964 -0.04401455
0003d0 42 21 6a 3d 18 34 49 3d e4 14 8d bd 28 93 63 bc
       0.057160623 0.049121946 -0.0688875 -0.013890065
0003e0 87 51 d7 bd 70 1f 3c bd 0b 9f 61 bd 75 f0 43 be
       -0.10513597 -0.04592842 -0.055083316 -0.19134696
0003f0 24 54 f1 3d e4 8f 02 3e d7 be 9a 3d c4 16 14 3e
       0.11783627 0.12750202 0.07555931 0.1446181
