test/velardo/lesson9.onnx (onnx, 665 bytes, 3 tensors)

dense/kernel:0 f4 [2, 5]
0.98613167 2.7150197 -1.9178848 -0.8640337 0.28512397 1.472694 1.6888248 -1.9074064
-1.6689361 1.2597295
00000000: 2073 7c3f e2c2 2d40 407d f5bf 5031 5dbf
00000010: c5fb 913e 3d81 bc3f 692b d83f e525 f4bf
00000020: b39f d5bf d13e a13f

dense/bias:0 f4 [5]
-0.38154507 -0.97768766 0.7902455 0.36723065 -0.14366946
00000000: e059 c3be bd49 7abf 874d 4a3f a805 bc3e
00000010: 161e 13be

dense_1/kernel:0 f4 [5, 1]
1.7350687 3.2599273 -3.1692069 -2.0117364 0.9297932
00000000: bb16 de3f a6a2 5040 49d4 4ac0 4ac0 00c0
00000010: ed06 6e3f
