test/simple_networks/lstm_kg_bg_r5.onnx (onnx, 938 bytes, 3 tensors)

lstm_W f4 [1, 12, 5]
000000 88 65 ff 3e e6 a5 a9 be c8 93 15 bf e0 da f5 be
       0.4988215 -0.33134383 -0.5842862 -0.4801855
000010 a1 d2 07 bf e0 d6 3b 3d b4 00 02 bf f1 ff 06 bf
       -0.5305577 0.045859218 -0.5078232 -0.52734286
000020 80 97 12 3f 16 db 00 3f 84 c6 0d 3f 2c c3 0b 3f
       0.5726242 0.503343 0.55381036 0.54594684
000030 70 ea 45 be 00 2c d7 bb 28 a3 89 bd 08 fb f9 be
       -0.19327712 -0.0065665245 -0.06720573 -0.48824334
000040 14 9f 55 3e b8 24 cc 3d 80 99 f1 be 02 25 7b be
       0.20861465 0.09967941 -0.47187424 -0.24525836
000050 a4 1b 09 3f c0 34 62 3e 40 dd 35 3d b4 f0 71 3e
       0.535578 0.22090435 0.044400454 0.23626977
000060 32 2b ca be 18 63 f1 bd c4 a7 e4 be 0c 6a c1 3e
       -0.3948608 -0.11786479 -0.44659245 0.3777622
000070 40 55 a0 3c a6 7b bd be d8 4b e0 3e 18 1c 76 be
       0.0195719 -0.370084 0.43807864 -0.24034154
000080 64 05 ec 3e 80 f7 79 3d 80 05 a1 3e 18 d6 08 be
       0.46097863 0.06102705 0.3144951 -0.1336292
000090 d0 c1 a5 3e c8 9d 06 3e bc 0e e6 3e aa ae 28 be
       0.3237443 0.13146126 0.44933116 -0.16472879
0000a0 e2 b8 0b bf b0 39 98 3d ee 98 e0 be 60 c5 86 bc
       -0.54578984 0.07432878 -0.43866676 -0.016451538
0000b0 4e b2 a2 be 0e 99 52 be 01 ef 02 bf ac 66 75 3e
       -0.3177666 -0.20566198 -0.5114594 0.23964947
0000c0 8a 0e cc 3e d0 96 c6 3e 38 1a 91 bd 3d 71 a6 be
       0.39854842 0.38786936 -0.07085079 -0.3250827
0000d0 1b 75 17 bf 34 37 f4 bd 82 19 16 3f 52 90 1b be
       -0.59163064 -0.11924592 0.5863267 -0.15191773
0000e0 d1 48 82 be e8 48 2e 3e 8a 49 c7 3e 9e 09 08 3f
       -0.2544618 0.17019999 0.38923293 0.53139675

lstm_R f4 [1, 12, 3]
000000 30 d8 b1 bd 5e d4 89 be 9f e1 c8 be 58 22 10 be
       -0.086838126 -0.26919836 -0.39234635 -0.14075601
000010 bb 7a 21 3e 2c 72 97 3e 5b 9f 10 be 15 fe 20 bd
       0.15769474 0.29579294 -0.1412329 -0.03930481
000020 29 e1 0e 3e 31 2e e6 be 96 2a 42 3e 56 66 be be
       0.1395308 -0.44957116 0.18961558 -0.3718745
000030 e9 5f df 3d f4 83 c6 bd 87 6f 30 be 4d 7d ca be
       0.10906965 -0.09693137 -0.17230044 -0.39548722
000040 61 08 db bd f8 ef d7 bc e7 c5 58 3d 4e d6 19 3f
       -0.106949575 -0.026359543 0.05292311 0.6009263
000050 f9 f4 ac 3e 01 a0 12 bf d6 4e a5 3e fd 21 34 be
       0.3378065 -0.57275397 0.3228671 -0.1759109
000060 2d 60 94 3e ec 9e 73 3e 3b ef a7 be f4 96 94 be
       0.28979626 0.23791093 -0.32799706 -0.29021418
000070 da ea 0d bf 03 98 95 3e 20 47 35 bd 53 42 a5 3d
       -0.5543648 0.29217538 -0.044257283 0.08069291
000080 ba 47 bf be 20 f5 91 be 5b 4b bd 3d 6f 03 9c 3e
       -0.3735941 -0.28507328 0.092428885 0.3047137

lstm_B f4 [1, 24]
000000 30 a4 84 3d 00 54 c1 bd 5c 74 97 be a8 f5 f5 be
       0.06476629 -0.0943985 -0.29580963 -0.48038983
000010 a0 21 7a 3d 28 ab 6a be 40 8e 94 be 18 a3 74 be
       0.061067224 -0.22916853 -0.29014778 -0.2389034
000020 f8 5d cd be e8 57 be 3e b4 73 97 be 54 33 d7 be
       -0.40110755 0.37176442 -0.29580462 -0.42031348
000030 00 00 00 00 00 00 00 00 00 00 00 00 00 00 00 00
       0.0 0.0 0.0 0.0
000040 00 00 00 00 00 00 00 00 00 00 00 00 00 00 00 00
       0.0 0.0 0.0 0.0
000050 00 00 00 00 00 00 00 00 00 00 00 00 00 00 00 00
       0.0 0.0 0.0 0.0
