test/tfl_helloworld/model.onnx (onnx, 2063 bytes, 5 tensors)

dense_4/kernel:0 f4 [16, 1]
000000 a0 7d a5 3e c7 d0 a6 3f a4 8b a1 be d0 38 10 3f
       0.32322407 1.3032464 -0.3155185 0.5633669
000010 94 44 f7 3e 1b a9 08 bf 9a f3 b7 3e 1e 26 50 be
       0.48294508 -0.53383034 0.3592804 -0.2032704
000020 10 3c bb 3e 5c d2 2f bf 83 74 9e 3d 1c 11 a0 be
       0.36569262 -0.6868036 0.077370666 -0.31263053
000030 93 d6 f5 3e a6 ef 97 3f 8d 59 fd 3e 70 8e a4 3d
       0.4801527 1.187001 0.49482384 0.0803498

dense_2/kernel:0 f4 [1, 16]
000000 b3 9c 66 3e ea a1 a7 3e 30 3f a1 3e 7f a6 14 3f
       0.22520714 0.32740718 0.3149352 0.5806655
000010 f7 f3 17 3f 17 cb 40 3e 4e 93 7f be 33 eb 06 3e
       0.59356636 0.18827473 -0.24958536 0.13175659
000020 50 43 cf bd de 88 61 be 36 3c 9d be 5a 4a 04 bf
       -0.10120261 -0.22024867 -0.3071 -0.5167595
000030 93 8e a5 be 67 f5 cb 3e cb 24 0b 3e 8e 18 6e be
       -0.32335338 0.39835665 0.13588254 -0.23251554

dense_2/bias:0 f4 [16]
000000 99 1d b7 be dd 9b 70 3e e1 67 41 bf cc eb 0b b8
       -0.3576477 0.23496957 -0.7554913 -3.3359785e-05
000010 13 95 e7 3e 84 3b 88 bf 00 00 00 00 91 88 1b be
       0.45230922 -1.0643163 0.0 -0.15188815
000020 00 00 00 00 00 00 00 00 00 00 00 00 00 00 00 00
       0.0 0.0 0.0 0.0
000030 00 00 00 00 f3 45 32 bf 23 0c 03 be 00 00 00 00
       0.0 -0.69637984 -0.12797599 0.0

dense_3/kernel:0 f4 [16, 16]
000000 d4 38 95 be c5 85 3e bf 0d 84 a2 3c 4d 04 d6 3e
       -0.2914492 -0.74422866 0.019838357 0.41800156
000010 5d 08 b3 be 8e d7 7b be 54 e2 d7 bd 83 c5 ab 3d
       -0.34967318 -0.24593946 -0.105412155 0.08387282
000020 ba 35 93 bc 53 00 f7 bc 38 1e 57 bd 00 30 16 bb
       -0.017969955 -0.030151522 -0.052519053 -0.0022916794
000030 77 a3 1c 3e 17 b3 0a bf 26 b3 53 3c ac e0 bc be
       0.15296732 -0.5417952 0.01292113 -0.3689016
000040 80 30 39 3d 6b d4 e4 3e b2 8f 42 be 99 97 69 3d
       0.04521227 0.44693312 -0.19000128 0.05702934
000050 64 72 89 3d 2a d7 42 be 5c d3 93 be 52 c9 f3 3e
       0.067112714 -0.19027391 -0.28872192 0.47614533
000060 2f f8 fc be ef 50 e2 3e f6 73 b4 3e c4 2a f9 3d
       -0.494081 0.44202372 0.3524472 0.1216636
000070 12 2d 93 3e 48 1f b6 bd 43 9c a3 3d e6 58 79 3e
       0.28745323 -0.08892685 0.07988789 0.24350318
000080 c0 20 53 3d f1 40 8e bf 4d 71 2c 3d 33 70 04 3b
       0.051544905 -1.1113569 0.04210024 0.0020208478
000090 ce 6c d4 be 1f d4 3c bf 29 27 c0 3e 4c c8 22 bf
       -0.4148926 -0.7376117 0.37529877 -0.6358688
0000a0 c7 44 c0 3e cf e3 49 bf 21 2a 41 be 4a 7d c5 be
       0.37552473 -0.78863233 -0.18863727 -0.3857215
0000b0 12 65 6e 3e 4e 1b 98 bf 47 6c 56 3f 9d f8 88 3e
       0.23280743 -1.1883333 0.8375897 0.26752177
0000c0 00 06 f0 ba ea a4 12 3f ab d1 18 3e 00 5c 00 bd
       -0.0018312335 0.5728289 0.14923732 -0.031337738
0000d0 9d 1c 83 be 2a 32 94 3e 81 33 5a be f9 15 aa 3e
       -0.25607768 0.28944522 -0.2130871 0.3321989
0000e0 3e f3 a1 3e 25 f4 93 be bb fb e4 be 88 70 25 bd
       0.31630892 -0.28897205 -0.44723305 -0.04039052
0000f0 c1 71 d0 3d ca 4b 20 3e 9f a0 0a 3e b9 c1 43 be
       0.10177947 0.15653911 0.13537835 -0.19116868
000100 3e a0 cd be 6a c8 34 3e 56 05 cd 3e fa 5e 92 3e
       -0.40161318 0.17654577 0.40043133 0.28588086
000110 90 7c f6 bd 47 2b bf 3e b8 2b ba be ad cd ef 3d
       -0.12035477 0.37337705 -0.3636148 0.117091514
000120 2e e7 9f 3e 58 1d f8 3e 13 3f c4 3b 2e ae cd be
       0.31231064 0.48459888 0.0059889643 -0.4017195
000130 27 a2 d0 be 6b a4 47 3f bf 39 e2 3d 20 cf bc be
       -0.40748712 0.77985257 0.110461704 -0.36876774
000140 96 3b a2 be 0d c8 b8 be b0 20 e6 bd 74 bf 4c 3f
       -0.31686085 -0.36090127 -0.112367034 0.79979634
000150 80 f7 93 3c b7 48 8a bf c1 e6 96 3e 79 58 c6 bf
       0.018062353 -1.0803441 0.29472926 -1.549575
000160 17 87 19 3f d5 9c 70 bf 18 67 a0 be a8 85 6b 3d
       0.59971756 -0.93989307 -0.31328654 0.05750051
000170 3b cd 3e 3e 61 8a c9 be 66 03 38 3f 57 e4 bc be
       0.18632977 -0.39363387 0.71880186 -0.3689296
000180 1b 59 ca 3e 0c bf 95 3d a0 fc 55 be 76 48 76 be
       0.39521107 0.0731183 -0.2089715 -0.24051079
000190 a8 19 7e 3d 0c 14 d4 3d 25 3c d6 3e 5a ea 08 3e
       0.062036186 0.10355386 0.41842762 0.13370648
0001a0 40 10 c5 bd a0 a0 a9 be cb f0 83 3e 95 dc a9 be
       -0.0962224 -0.3313036 0.25769648 -0.33176103
0001b0 28 d3 a5 be a6 08 8a be 54 a4 b5 be 40 1f b7 3c
       -0.32387662 -0.26959723 -0.35476935 0.022353768
0001c0 2b 6b d4 be 3f 81 54 bf 61 e4 bc 3e 0f 3f f2 3e
       -0.41488013 -0.83009714 0.3689299 0.47313735
0001d0 2b 9c 9e be 5b 73 69 3e 99 ee 70 be e4 e3 48 be
       -0.30978522 0.22797911 -0.23528518 -0.19618183
0001e0 5e b3 d1 3d b6 67 25 3e e6 da cb be 7c 74 ca 3d
       0.1023929 0.16152844 -0.39815444 0.09885499
0001f0 e2 1c c8 be f9 4e e3 be 96 18 50 be 20 84 d7 3c
       -0.39084536 -0.4439619 -0.20321879 0.02630812
000200 9a 94 96 be 73 aa ce 3e 80 7b c5 bc 63 b9 9e 3e
       -0.2941025 0.40364417 -0.024106741 0.31000814
000210 94 64 93 be 14 b7 fc 3d 96 34 61 3e d1 f3 d7 3e
       -0.28787673 0.12339607 0.21992716 0.42178205
000220 77 fc d0 3e 00 5d 28 be 63 55 d2 be 05 7c da 3e
       0.40817615 -0.16441727 -0.4108077 0.42672744
000230 05 eb 85 3e 20 8e be bd 49 fc ae 3e d1 bb a3 3e
       0.26155868 -0.09304452 0.34176853 0.3197923
000240 2f a3 a2 3e f8 ea 5f bd 00 dc cb 3c ae 7c 6d 3e
       0.31765124 -0.054667443 0.024885178 0.23192093
000250 68 84 66 be 86 76 dc be 18 a9 39 be 74 ea 22 be
       -0.22511446 -0.43059176 -0.1813091 -0.1590975
000260 99 b3 d0 3e 05 3f cd 3e c0 64 f3 bb 98 d8 cc bd
       0.40762022 0.40087143 -0.007427782 -0.100022495
000270 43 a4 99 be 4f 29 9e 3e 70 8a 49 3d e8 81 ad bd
       -0.30008134 0.3089089 0.04920429 -0.08472043
000280 dc 99 ef 3d 26 86 47 be 0c 95 c6 3d 77 33 a4 be
       0.11699268 -0.19484767 0.09696397 -0.32070515
000290 a9 e6 8e 3e a9 8a d5 be a1 99 c5 3e 80 89 46 3d
       0.27910355 -0.41707352 0.38593772 0.048470974
0002a0 06 a7 00 be d8 40 85 bd 68 af d1 be 18 8c a1 be
       -0.12563714 -0.065065086 -0.40954137 -0.31552196
0002b0 f4 90 2c be 0e 19 64 3e 79 e2 a2 be 17 91 cb 3e
       -0.1685217 0.22275183 -0.3181341 0.39759132
0002c0 58 10 9d be 1d 4e af be 54 0c b5 3d ec 87 83 be
       -0.30676532 -0.34239283 0.08840242 -0.25689638
0002d0 71 60 55 be 9c 69 86 be 2b 81 85 3e 02 b5 a0 be
       -0.2083757 -0.2625245 0.2607511 -0.31388098
0002e0 e5 de d4 3e b8 da 2f bd c7 a5 bb be ed 3f b3 be
       0.41576305 -0.042933196 -0.36649916 -0.3500971
0002f0 04 dc 9f be e3 30 bd 3e 9a df 0c 3e 81 19 8c 3e
       -0.31222546 0.3695136 0.13757172 0.27363208
000300 3f 0a 8c 3e 0c 8d 98 3d 65 f9 c3 3e 9a 40 4d 3e
       0.27351567 0.074487776 0.3827621 0.20044175
000310 62 c3 4e 3e d7 86 b8 3e ad 24 9f be 00 b0 d7 3b
       0.2019172 0.36040375 -0.3108267 0.00658226
000320 f8 4a bb be e5 fc c3 3e 06 be 58 3e cb 6c 47 be
       -0.36580634 0.3827888 0.21166238 -0.19475095
000330 84 72 8f 3d 96 f3 80 be 8f 14 b6 3e 36 54 7f 3e
       0.07004264 -0.2518584 0.3556256 0.24934468
000340 ba a8 34 3e ea 72 70 bf 88 2a 91 be 89 7d cf 3d
       0.17642489 -0.93925345 -0.2835276 0.10131366
000350 4e 38 6f 3e e9 40 63 3e ad 4b a0 3e fa d4 9d be
       0.23361322 0.2219273 0.31307736 -0.3082655
000360 47 2c 9f 3e d8 33 a7 be c8 e7 ab bd 4c ad bd 3d
       0.31088468 -0.3265674 -0.08393818 0.092615694
000370 30 d8 6d 3d f1 53 82 bf ea eb dd 3e 50 60 a3 bd
       0.0580675 -1.0181867 0.4334405 -0.079773545
000380 00 6e 03 3c a1 2a 88 bf b0 a6 43 3d dc b9 ca be
       0.0080218315 -1.0638009 0.047766387 -0.39594924
000390 0e e8 b5 be 4d 7b 27 bd 8d 93 99 3e ea 75 01 3f
       -0.35528606 -0.040889073 0.29995385 0.5057055
0003a0 d0 94 87 bd be 99 d0 3e 3e a5 4b 3e 78 3e 5b 3d
       -0.066201806 0.40742296 0.19887254 0.05352637
0003b0 d9 82 7a bd fb a3 88 bf 10 db 86 3e 7a 5c 57 be
       -0.061159942 -1.0675043 0.26339006 -0.21031371
0003c0 9a fe a1 be 02 71 37 3e c7 f2 bc 3e c8 26 2e 3d
       -0.31639558 0.17914203 0.36903974 0.042517453
0003d0 42 51 0b 3e 3d 91 8d 3e 2a 35 96 be a6 a5 0a 3e
       0.13605216 0.2764987 -0.29337436 0.13539752
0003e0 6e 1c 41 3e 5e 0f c1 be 9f 6e 8f 3e 0d 09 89 be
       0.18858501 -0.37707037 0.28014085 -0.26764718
0003f0 08 28 af bd 40 50 75 3d 9f c6 9e 3e d1 a6 8b 3e
       -0.08552557 0.059890985 0.3101091 0.27275708

dense_3/bias:0 f4 [16]
000000 00 00 00 00 79 9f a3 3d 24 91 24 3e 76 50 af be
       0.0 0.07989401 0.16070992 -0.34241074
000010 00 00 00 00 98 c4 4c 3e 00 00 00 00 8b 84 0e 3e
       0.0 0.1999687 0.0 0.13917749
000020 a0 96 c7 be a0 79 b2 3e a8 f5 d2 bd 00 00 00 00
       -0.38982105 0.34858418 -0.103007615 0.0
000030 f7 56 08 bd b0 1d f2 3e 19 53 c8 be 00 00 00 00
       -0.03328606 0.47288275 -0.39125898 0.0
